parameters/b1.npy (npy, 4224 bytes, 1 tensors)

array f8 [512, 1]
00000000: 42d2 8097 e918 743f f0c4 5e36 9688 82bf
00000010: bbab 9888 ee12 7cbf 58b6 2671 9723 56bf
00000020: e298 f99c 4986 783f 83f0 be34 a4d5 813f
00000030: 97de babb 3f9c 823f 3626 9912 31af 7ebf
00000040: 19aa cc8e 5ac0 953f c7ba 2e98 3188 983f
00000050: 88d7 74e2 66c2 8e3f d115 5120 ddfe 47bf
00000060: 9d27 82d3 4394 913f ff6f e4ec f3e5 8c3f
00000070: bb5c a3f4 f2b7 593f 90bc 392c 0bc3 413f
00000080: 7a93 cc45 ede9 873f eaa2 ae88 574d 663f
00000090: 86fd d1ee bc48 7d3f d2f9 5d6b 5922 7ebf
000000a0: 2392 eeb9 1956 713f f53d 3be6 c8d7 7b3f
000000b0: c42e 487f 28ce 953f 6517 d2bc 9317 a03f
000000c0: 92e2 2428 7617 653f d665 3098 76cb 803f
000000d0: 4b81 6f81 0004 7d3f af89 8195 74f5 65bf
000000e0: 4cfc fbe6 74f3 783f 6a56 6f09 b979 843f
000000f0: 55a2 8959 c423 5d3f e47c dde9 d4f7 823f
00000100: b661 f1ba e03b 56bf 88f2 2b39 c4a4 493f
00000110: dd14 12e3 a034 8a3f 6143 a411 3efe 803f
00000120: 66d5 a112 39b8 9b3f c57d b2c9 b6b7 863f
00000130: dbf6 fa8d 77b1 a63f b2ea 9627 1739 863f
00000140: 9bce e1bb fb34 89bf 7280 e131 aa12 4dbf
00000150: 4aab ac09 4533 8c3f 9fa9 8023 a0c1 69bf
00000160: fe0a b59e d774 7b3f 8419 31e4 81f3 7ebf
00000170: 7862 100a 6d43 68bf 0a04 f7ad 7bc4 723f
00000180: 5789 b52d 37be 8c3f b8db 69eb 232d 683f
00000190: 72a4 057a 56d2 893f 15e9 da96 8c09 953f
000001a0: 3339 ee0e f6be 903f a948 0802 9b84 7e3f
000001b0: 989d 0472 a275 2b3f 3495 1d8c 9c9e 7f3f
000001c0: 1669 b0b4 4ea0 8d3f 2e5e e429 0d76 51bf
000001d0: 1c92 762d e22e 783f c77f 55e2 48f6 3ebf
000001e0: ffef c654 ea1c 903f 7750 2d35 3d4d 233f
000001f0: e9c0 e121 d410 843f 32c1 7760 b4a5 9a3f
00000200: f8fb d138 736d 7c3f c47b de61 08ef 493f
00000210: 4bbc 5d09 0a3c 553f 8234 4098 c3bd 363f
00000220: 873d 446a 9493 7a3f 875d 9c73 830e 78bf
00000230: ba15 3aaf 9f02 a23f abe6 87f1 948b 9b3f
00000240: 8dd4 d072 877d 813f 2ccc 2ce9 e8ed 913f
00000250: 0baf 967d 4303 63bf da5d 05cd 47aa 913f
00000260: cf6a 44d0 b8e5 20bf 441d d844 f907 9a3f
00000270: a004 d22f 2e58 53bf 6d41 9307 ef98 7d3f
00000280: dc05 786d d4a3 8c3f d9f9 09fd e05d 9a3f
00000290: 9e04 936d 0a16 583f 9b71 0614 c4ac 9e3f
000002a0: 3fc4 e40e 29b2 783f a310 2987 35f8 903f
000002b0: 3330 c66f 4434 69bf 4105 38a0 139b 86bf
000002c0: b432 cc52 8ca3 62bf fb36 7c7c 3c2a 833f
000002d0: bede 92d3 153c 8e3f 254b b648 726a 803f
000002e0: eeb7 0944 944c 763f bae6 1f4f d3fc 833f
000002f0: 8c1c e841 90b7 5a3f ac76 46ce 10ae 633f
00000300: 4ece d18f b4c7 713f 7a05 9641 27af 953f
00000310: 8346 2648 132b 58bf 0c73 fd60 3aa7 643f
00000320: ff20 fffa 2967 56bf 6339 209d 08ef 973f
00000330: 9be3 04a3 adf9 8d3f a713 5e90 8433 733f
00000340: d6b0 bec2 1431 853f d14a 53dd ce3e 873f
00000350: 7e82 7e79 69e0 863f 1fb3 db9c 0d30 74bf
00000360: 43c7 0962 baec 833f 1354 9b41 09df 863f
00000370: 2ef0 87cf a407 48bf ee26 348c 4fb7 8e3f
00000380: c3f6 1a33 b315 923f 2dc5 5a9c 2dd0 52bf
00000390: d7ed 8bfe fba9 83bf 495e f057 7a16 55bf
000003a0: 1894 bb1f 338b 70bf f762 b310 799e 61bf
000003b0: 90f5 667e d7b6 73bf 1c3d 308a 71cd 913f
000003c0: 7142 7794 8ee1 80bf 3c11 7cc4 8e6c 913f
000003d0: 3fa5 ab6e 5b81 7c3f 9ead d44d a3a0 6e3f
000003e0: 52e3 64c8 d55f 713f 8c04 1cc7 f193 923f
000003f0: fa4b 2c4d 2ef3 7bbf 452a bdcc d310 6e3f
00000400: b639 a00a 74da 5a3f 7363 56bc 79cc 903f
00000410: 71c2 82a2 a7f5 793f 9b03 c6bd c87c 933f
00000420: 65c6 b335 8a97 823f a89a 3a30 4d41 933f
00000430: 177d 8a08 a941 9e3f 35af 2c44 492f 773f
00000440: c8cc 727f f701 813f cd63 43d8 2d9c 683f
00000450: 140f 1f2a 0e71 803f 12cd bff7 c859 673f
00000460: 62c6 e8bb 8a34 933f d780 599f f444 953f
00000470: 5ec2 b1a4 484e 903f 8fce 849c 9ffd 143f
00000480: 57e3 a746 2c42 65bf ccc4 006c c593 7e3f
00000490: 84d4 11ae e33c 903f b47c 7724 f7a4 423f
000004a0: b297 54a5 2b3d 993f 42bc e099 3204 803f
000004b0: cee5 9f94 3c3f 683f c58d 7a26 3494 8c3f
000004c0: 85e8 0387 d0e6 55bf b7b5 bfc8 9685 8d3f
000004d0: 8542 2ce7 423f 7a3f ea2a 2da9 000b 553f
000004e0: 6fa9 66d3 868b 743f 7bed ab91 db15 683f
000004f0: 7b1e dfac 40a7 863f 95e1 fea7 c9cf 763f
00000500: faf1 052e e928 803f a30c 4f9e 3243 6b3f
00000510: 95a9 e983 fe7d 8d3f 7f28 e9e6 3225 833f
00000520: c879 7100 3a23 65bf d225 411d 695e a13f
00000530: 3571 0a69 25b4 873f 4f6a 7e66 4514 61bf
00000540: cbf0 0cd0 ee4c 943f 69d1 70bf a8fe 863f
00000550: 0ceb ac81 140f 713f 527f d04e be81 38bf
00000560: f575 312a 55a8 763f be45 3a8c be19 923f
00000570: 9fec 65c9 beb3 6cbf 9d3d a17e b4c9 7a3f
00000580: 4b51 6018 734d 833f 3a3f 58fa bde1 713f
00000590: eebd f3ba bb32 813f 0587 5d30 8df7 8a3f
000005a0: 0940 4a9e c93f 78bf 0c3c 3d0e d29a 503f
000005b0: ccac 4523 d6bd 733f b889 e5ad 6c35 8e3f
000005c0: ea5c 14ad b2be 763f 2119 d97e 8415 65bf
000005d0: 9458 0052 c402 803f cce7 4400 d213 873f
000005e0: b181 b513 26fd 763f 4cd6 0a2d a72f 8d3f
000005f0: ea96 60ac 6b89 8e3f c8c0 8b45 c1b5 833f
00000600: 0935 a192 9427 623f 0fb1 e05f deb9 80bf
00000610: 70b3 3fd9 2351 7bbf df91 a256 288e 64bf
00000620: d421 1892 54e2 9a3f a377 a38c 466f 6e3f
00000630: d765 ca2a 63dd 49bf b1ac 8a38 6c50 36bf
00000640: 2eae 6cce 8257 a13f 47b7 d98d 9c58 773f
00000650: 1155 2d10 a421 713f c85c 63a2 caa6 4e3f
00000660: eca1 cda3 2a03 61bf a235 0cfa e9a2 5f3f
00000670: 23e9 7b9f 0468 9d3f 6a37 ed29 3ff0 913f
00000680: e78d 43d8 dc28 833f b657 7f21 e58f 903f
00000690: 1d75 287d 7f02 7cbf e1f8 5da6 c51e 743f
000006a0: 15ef 4495 3e81 803f 1fe3 434e 34d0 4a3f
000006b0: 580e 615b 00a7 903f 6b2a 46f4 24e6 9d3f
000006c0: 8e43 efb1 34a6 903f 266d 0ecd b362 71bf
000006d0: 9e21 0f05 7584 40bf 64bd 2bdc 51b9 953f
000006e0: 23e4 a532 2bc0 5ebf e323 d5d3 0654 413f
000006f0: 0628 65be 0646 8d3f 5bcd a30a 7b72 7a3f
00000700: 34ad 164c 382a 8c3f 13ee de28 d6ac 6c3f
00000710: 4330 240f f7c9 8f3f 0164 293a 7881 5d3f
00000720: cb8b 4efa e4f1 733f dc48 e2de 1b03 43bf
00000730: 7cc1 e96b 6016 933f 6ab3 a7eb 8103 863f
00000740: fad7 2839 ce41 893f 651a e493 5df2 783f
00000750: 0aea d75d 458f 803f 0c38 a067 ff71 7e3f
00000760: 35fa 6be5 2275 6d3f 4f12 a7b8 1988 7f3f
00000770: 5e7a cdf9 237f 813f 2464 ecbb 4738 833f
00000780: 4a01 4e3a 79b0 943f 3c33 1251 d3ad 873f
00000790: a6e3 12a8 693a 483f 93f7 3db4 193d 723f
000007a0: e3af 713d 6d05 853f 8210 7d6c d516 883f
000007b0: 8746 2213 8286 8f3f 9594 02e1 7840 7c3f
000007c0: 0620 4f97 e7f3 7bbf a241 1e51 2bf3 993f
000007d0: 7a16 dc34 e392 913f 30a1 43ec 6c41 72bf
000007e0: 5d13 3bf3 b3c4 333f 9b7a 6d97 493f 843f
000007f0: 42d8 e748 857a 703f 1a35 b1e6 87b9 843f
0.004906570880895135 -0.009049581083532904 -0.006853992244525149 -0.0013512591291190614 0.005987441588876959 0.00870826993911345 0.009087083736957253 -0.00749129456523572
0.021241583791530603 0.023957037843213038 0.015019229684735583 -0.0007322864263491995 0.017167148384522702 0.014110475222473438 0.0015697357762769887 0.0005420498423073395
0.011676648800468693 0.0027224263808033238 0.007149446505649753 -0.007356976789991214 0.004232502454133899 0.006797585261395058 0.02129424359195188 0.031429878997228745
0.0025746639013529216 0.008200575370255796 0.007083894705801018 -0.0026805188208964474 0.006091553353825562 0.009997792816572832 0.0017785470464791915 0.009261763941763985
-0.0013570494300180042 0.0007825811502183014 0.0127956933304269 0.008297429002171066 0.027069942247597643 0.01109259417563536 0.044322715837081104 0.010851078887630681
-0.012308088942723663 -0.0008872347859885234 0.013769664151899303 -0.003144085665572407 0.006703226342611 -0.0075564454919628855 -0.0029618386911461313 0.004581912158244892
0.014034682352477885 0.002951212077558076 0.012608218764130739 0.02054423971888138 0.016353459035195427 0.007450681209336598 0.00020949943519464327 0.007719623101228468
0.014465918435281593 -0.0010657433081798884 0.005904086595738291 -0.0004724433841456457 0.015735303329833524 0.00014726040043433797 0.00979772308730316 0.026022737873007525
0.00694031723571608 0.0007914343766407474 0.001296052743295711 0.00034700417768435837 0.00648839926385792 -0.005873216135817378 0.035176267757417404 0.026899649850725165
0.008540208999060073 0.017509116393920873 -0.0023208921599769997 0.017251130951391726 -0.00012891655945498077 0.025421042277256292 -0.00118069181851891 0.007225927075708999
0.013984355536197528 0.02574874443461703 0.0014700986705949225 0.029955924722899856 0.0060292819819532375 0.016571842550789594 -0.003076680817860855 -0.011037972762098948
-0.002275251454540184 0.009357903050410501 0.014763041037766707 0.008015530437466343 0.005444125331093714 0.009759569980804062 0.001630679012693456 0.002402336906199695
0.004340844459068528 0.02117596948437981 -0.0014751137065086857 0.0025211467945339735 -0.0013673696484933215 0.023372778501703616 0.01463637975449377 0.004687803104279554
0.01034752101244189 0.011350265626253105 0.011170219440658654 -0.004928639578548637 0.009728866688621834 0.011167595209750336 -0.0007333330859746795 0.014998074976137112
0.017660903925153414 -0.001148266355283599 -0.009601563172956169 -0.0012870974312643327 -0.004039001181557665 -0.002150761085072946 -0.00481304337739398 0.01738526731429345
-0.008242715745752723 0.01701567720648821 0.006959302098701158 0.0037387074977652387 0.004241786088010029 0.018142488267589615 -0.006823712220255901 0.003670133277329487
0.0016389973848195244 0.016405012245374672 0.0063377903208424605 0.019030701239447372 0.009078101886618126 0.01880379301897031 0.029547349115657342 0.005660330006133131
0.008304532601277961 0.003004159489233582 0.008028135929528037 0.002850430026222769 0.018755119055816734 0.020770857072762574 0.01592362885679887 8.007322970087826e-05
-0.0025950302854166707 0.007465144328351058 0.015857274531715607 0.0005689818144069187 0.024647409406632632 0.007820506401996611 0.002959841081062043 0.0139545511477256
-0.0013367687607215583 0.014414957047814576 0.006407986965101591 0.0012843615010804063 0.005015875495170226 0.002940110059510279 0.01106119659006243 0.005569255561504245
0.007890531270043678 0.003327940811205092 0.014400471115739314 0.00934829489883193 -0.0025802738996809384 0.0339234207354583 0.011574070232477677 -0.002084861323919974
0.019824725578687457 0.011227911321932198 0.004164772132578386 -0.00037394424617963773 0.005531628298823578 0.0176763318145896 -0.0035036779692610566 0.0065400171825581695
0.009425067120937177 0.004365675069052883 0.008397547381234962 0.013167479551785552 -0.005920207568706822 0.0010134745907242086 0.00481971404620225 0.014750336701301645
0.005552957490429148 -0.0025737369349229243 0.007817777397616056 0.011268273003782435 0.005612515199885968 0.01425104719360628 0.014910546491658978 0.009624013838646653
0.002216139012523603 -0.008167016316371204 -0.0066691780411759355 -0.0025091922626236797 0.02625400678337704 0.00371516970800108 -0.000789330884418844 -0.00034048692809092023
0.033870780657107566 0.005699740924326075 0.00418247306045784 0.0009354104447777617 -0.0020767052468963956 0.0019309315613925478 0.02871710990346189 0.01751803105735609
0.009355283117151237 0.016173916024704936 -0.006838319781789862 0.004912159032640613 0.008059014253937439 0.0008182769202270435 0.016262059762324504 0.029198243531519823
0.01625902496363412 -0.004244520518933903 -0.0005040713677937796 0.02121475130382801 -0.001876871285814604 0.0005288155877362057 0.014293720899008388 0.006456833487607251
0.013752403089560696 0.0035003836446472285 0.015521936559274368 0.0018008874982540226 0.00486936039388559 -0.0005802045905219061 0.018640047632687992 0.010748877529260976
0.012332545394297501 0.006090512788665768 0.008085767675756212 0.0074329354047346745 0.0035958940092080346 0.00769815490133803 0.008543282566902007 0.009384689733950742
0.02020444315303508 0.011562014495461896 0.0007393852139535486 0.004452801138425405 0.010264256894707507 0.011762301801020895 0.015393272599143927 0.0068974229654134205
-0.006824402477782604 0.02534167940717825 0.017161893941212793 -0.004456925850014934 0.00030164140046578196 0.009886336263375475 0.004023094791128003 0.010119497039478054
