parameters/b2.npy (npy, 2176 bytes, 1 tensors)

array f8 [256, 1]
000000 b8 00 ee c3 4a f4 3c 3f 42 ee 27 44 3c c3 53 3f
       0.0004418070347398484 0.0012062157189792898
000010 28 08 85 a8 d7 da 92 3f a5 a4 81 80 34 67 76 3f
       0.018412942562697904 0.0054695177896998725
000020 c3 b0 81 81 4a 84 7b 3f 03 af b0 f4 dd fe 93 3f
       0.006717959440816826 0.01952692800493506
000030 0b ed a2 54 c6 23 92 3f 54 54 de e5 02 53 90 3f
       0.017714594760701845 0.015941663055475466
000040 ba 23 83 65 91 b5 e9 be 10 2f b7 43 d0 53 52 bf
       -1.2259125626095053e-05 -0.0011186155160087287
000050 0d 60 2d 6b 48 c0 7a 3f f1 f6 6a 57 46 bc 6b bf
       0.0065310314992857 -0.0033856748444510633
000060 63 78 7b dc 80 64 92 3f 23 14 a9 e5 63 86 7e bf
       0.0179615149089546 -0.0074523832541375816
000070 88 e2 03 c1 ec 1f a4 3f c1 fd ff 5d c6 ae 74 bf
       0.039306067048476 -0.005049490806413316
000080 78 32 e8 85 8c a6 a5 3f d5 b9 9b 44 c4 f5 77 3f
       0.042286292406150616 0.005849615737800258
000090 7c 08 ec a5 ae e3 56 bf ac 24 ad 4c 39 6f a4 be
       -0.0013970571087047736 -6.08994605280239e-07
0000a0 ac eb 67 72 4f fc a1 3f 4c d9 c1 be f6 5e 69 3f
       0.03512810012394793 0.003097040104019266
0000b0 e1 f5 e1 ed 53 3e a0 3f ff c6 8e 33 66 1d 71 3f
       0.031725523746881874 0.0041784279100498525
0000c0 b9 84 36 48 3b 31 6f 3f 02 1d 62 ed ea d4 77 3f
       0.0038076551297342135 0.00581828850238897
0000d0 02 43 64 7e 25 93 76 3f 2b ab 3c e8 6e ab 75 3f
       0.005511423549493301 0.005290444594531245
0000e0 b0 2e bc f0 5b 25 71 3f 05 3f e9 ff 29 43 89 3f
       0.0041860190792807755 0.012335136530196697
0000f0 46 22 dc 75 b1 e2 82 3f a6 95 7d b8 f5 0b 92 bf
       0.009221445473955769 -0.0176237481931786
000100 79 e5 ef 01 55 76 88 3f e1 e2 d7 4e 09 2b 52 bf
       0.011944450494399505 -0.0011088934801348138
000110 cd dc 1b fa 85 13 85 3f 29 72 b9 b4 62 76 73 3f
       0.010291144080368042 0.004751573152671309
000120 4e b3 ac 2a fe 76 66 bf 88 f2 14 75 3a 79 98 3f
       -0.002742287082034534 0.02389994945154908
000130 78 c8 ee f7 2b ce 7d 3f 6c 76 0a bf 09 d2 85 3f
       0.0072766988295588295 0.010654522078137073
000140 0e db c9 0d 36 88 28 3f bc 13 f1 b3 38 cf 93 3f
       0.0001871648772923885 0.019345174772997117
000150 e2 f5 d3 d3 1f eb 7e 3f c2 c9 ad 08 d0 b1 4e bf
       0.007548450780857393 -0.0009367242613350024
000160 5d 95 8b 3e 9b 4a 91 3f 4b 29 79 2e 6c d7 55 bf
       0.016886163418253875 -0.0013330990276637252
000170 43 06 f1 c8 e9 ee c8 3e de 7f a8 b1 89 3f 42 bf
       2.9722755879042623e-06 -0.0005568907102464456
000180 d2 74 6e 3e 46 3e 71 3f f5 11 eb ea c6 b4 42 bf
       0.004209780111435539 -0.0005708667066178218
000190 38 50 bb 88 84 c8 a6 3f cf 55 ae 99 42 15 81 bf
       0.044498578730469196 -0.008341331782314136
0001a0 57 f6 56 22 b5 ff 95 3f 73 b9 1e 21 3f ec 82 3f
       0.021483259411743862 0.009239667127840722
0001b0 12 53 26 65 ee 96 57 bf 58 db 14 5e 13 e5 5a 3f
       -0.0014397934033684762 0.0016415299545095765
0001c0 91 11 77 48 2f cb 8a 3f e2 48 9c d8 e3 fc 51 3f
       0.01308285655876132 0.001097891336432393
0001d0 65 5d f1 00 4c b7 9c 3f 9a 2f ad 31 29 c7 87 3f
       0.028042972142740114 0.011610338047510816
0001e0 69 d3 54 c1 b5 83 6a 3f df 14 43 0b 78 11 8d 3f
       0.0032366323381673346 0.014193475574197865
0001f0 d6 fe c0 cf a2 16 3b bf b5 b6 23 5f e6 1a 92 3f
       -0.0004133365143878914 0.017680739933828977
000200 9a f0 de cd fa ca 4e 3f 31 02 e3 22 0d 73 45 3f
       0.0009397244100379954 0.0006545843259787074
000210 28 d5 fe 09 99 9f e3 be d9 c1 5e 6e 4f 56 85 3f
       -9.357180090189559e-06 0.01041853004048303
000220 37 c2 38 16 eb b2 6d 3f df 84 83 d3 70 d0 65 3f
       0.003625353959954471 0.002662868846628016
000230 37 8c 21 41 d5 7b 7d 3f b5 63 0e 22 cd 73 58 3f
       0.007198174500532998 0.0014924529316202421
000240 45 49 44 db 5f 0e 86 3f f9 e5 af 8a 9b 9f 73 3f
       0.010769604567518196 0.004790885529467819
000250 f2 cb a8 2d 29 37 7a 3f 69 62 62 5a 8b 05 6f 3f
       0.006400261738735745 0.0037868234385991973
000260 9b 48 44 79 ff 2e 86 3f c8 17 7f 4b 41 ad 86 3f
       0.010831828964488024 0.011072645298451436
000270 5e 11 fe 62 d1 6a 80 bf 6f 1a c2 2c cf fb 93 3f
       -0.008016239007482436 0.019515263659310052
000280 ad 16 8e f0 62 81 82 3f 34 86 c6 cf d6 fb 88 3f
       0.009035847631604222 0.012199094978146176
000290 ad 3f 27 4f dd 1d 84 3f ca b5 17 fa 0c 26 7d 3f
       0.009822586992328153 0.00711636609183359
0002a0 2b 3b c8 e2 47 87 93 3f 1b c8 cc 59 15 b3 77 bf
       0.01907074281376279 -0.0057860216154939316
0002b0 4f 3c 65 89 a4 80 74 3f 7d 06 a6 56 70 f2 8c 3f
       0.0050054957594759105 0.014134290355971796
0002c0 2a 20 25 fe 32 5a 7b bf 4e 5c 70 8c c1 0e 79 3f
       -0.006677817526288302 0.006117588090112381
0002d0 a3 d0 dc d3 af db 48 bf d5 c2 71 03 e6 96 04 bf
       -0.000758610585512649 -3.9271254018374197e-05
0002e0 f3 d0 ac 78 e0 2d 39 bf a1 9c 35 19 7c bd 86 3f
       -0.00038420419939490176 0.011103600997286302
0002f0 31 9b cb ed 99 b2 8f 3f 3e e6 5b 8c af e2 61 3f
       0.01547737366622712 0.0021832874944010252
000300 43 f0 95 63 8e d7 74 bf 0c 9b 72 7d 4d e9 71 bf
       -0.005088382918412351 -0.0043728854135796184
000310 87 f6 4a 86 68 1f 9a 3f 34 48 ca 83 d8 99 7b 3f
       0.02551043815286971 0.006738515625913922
000320 3f 28 fe 6c 15 6e 82 3f be 4e 8b 94 4f 71 63 bf
       0.00899903048390993 -0.002373366766144829
000330 e8 1f b0 d6 43 d2 8b 3f 5d a4 8c 7c 1b 6c 88 bf
       0.01358464240003339 -0.011924948442883993
000340 b3 e6 f2 78 08 d9 80 bf fe 0c e8 b5 83 8f 70 bf
       -0.008226457778039408 -0.004043116087362407
000350 6c ce ea b0 ca 01 41 bf 88 e0 0e 15 eb cc 7a bf
       -0.0005190124228051213 -0.006543081560202897
000360 63 30 8e 25 d8 eb 95 3f 0f 49 30 27 9c 66 55 bf
       0.021407487194253238 -0.0013062024052073495
000370 c1 36 6b f0 8e 4e 61 bf 73 04 79 b2 e7 45 a0 3f
       -0.0021126548557280638 0.031783333336087426
000380 32 15 57 0e a9 b8 91 3f c5 48 ac 79 fa fe 8e 3f
       0.017305985927824348 0.015134770239033543
000390 19 9e c4 bb fc c5 7d 3f 53 1f 1c ab 7d 63 79 bf
       0.007268893470871806 -0.006198397533587602
0003a0 58 7a cc 5c 4b 75 89 3f 44 71 b2 1f ba 7a 7c 3f
       0.01243075253438268 0.006952979131849727
0003b0 7a ed 40 6d 65 b1 a8 3f ce 63 1b e8 f0 62 82 3f
       0.04822842558538816 0.00897777756056142
0003c0 ee 4c 92 90 ab 59 5d 3f 8c 2c 1f 32 c9 b5 6a 3f
       0.0017913985668983018 0.0032605104069936604
0003d0 0d 3e 54 79 3b 63 53 bf 57 f0 ad 95 d7 db 3a 3f
       -0.001183326797505549 0.00040983212755186154
0003e0 43 b5 55 fe 97 98 7c bf 55 82 cb 9f ab 8b a0 3f
       -0.0069814622159872245 0.032315600639553445
0003f0 78 28 ff 3a da 73 4d bf 4c a3 3a 45 63 cb 64 bf
       -0.0008988204553983655 -0.0025383890986926724
000400 27 30 b2 2a b0 5b 60 3f 5d 9c 5b b7 b1 b3 80 3f
       0.001996845317597379 0.008155239494455008
000410 ad 1f ac 88 ca c8 7c bf 19 bd dd 87 80 20 59 3f
       -0.007027426860766112 0.0015336280043490357
000420 f7 07 4c 50 bd ca 9a 3f 53 b8 76 7c 4f 62 8e 3f
       0.026164014841022234 0.014835949884254662
000430 35 8b 1b 2f 85 1a 72 3f a4 68 8f 0f 32 8b 6f 3f
       0.004419822931341956 0.003850553297962982
000440 ad 4e 09 99 76 f3 93 3f 71 18 45 71 a6 f9 8b 3f
       0.01948342618045611 0.01365976365253749
000450 f9 ff 82 75 85 1e 6c 3f c6 b2 53 72 8f 9a a0 3f
       0.0034325224515612232 0.032429201799322224
000460 82 c4 43 71 80 43 86 3f f6 8f a9 01 f5 1e 49 bf
       0.01087093682915197 -0.0007666298218507162
000470 f6 75 f3 47 1d fe 4b 3f bf 38 32 af 38 36 7e bf
       0.0008542674039763709 -0.0073759283287825874
000480 3d 4f aa c0 19 b6 a3 3f a8 c8 ab 7c 27 b2 65 bf
       0.03849869229193679 -0.00264842712692211
000490 21 c1 90 c0 6c 6c 52 3f 76 ad db a2 8c cc 8a bf
       0.001124483302430042 -0.013085459442172303
0004a0 e9 18 7c 05 50 af 40 3f eb 11 c4 8d 2d 09 8e 3f
       0.0005091801385510827 0.014665943039752846
0004b0 bf 35 e0 cd ef f2 7c bf 8f ef 3d 83 df f6 76 3f
       -0.007067620024839127 0.005606530281394031
0004c0 a8 0a e1 63 65 d2 6a 3f b1 05 e3 2a fd bb 9b 3f
       0.0032741527820986 0.027084308378794556
0004d0 3c f2 3b 4f fe c8 78 bf 0a df 25 b7 0a eb 8a bf
       -0.006051057240025911 -0.013143619264823343
0004e0 1e d8 e2 6e 3e f4 85 3f 2a ce 28 ab cb 55 80 3f
       0.01071976447961381 0.007976142083044275
0004f0 54 ed 9e 47 18 1b 39 3f 65 e3 18 6d 39 07 a5 3f
       0.0003830847050456294 0.0410707421946828
000500 07 2d fd 2a 59 3c 91 3f dd 8d 1c 8c dc 28 6d 3f
       0.016831773041571043 0.0035595233502065796
000510 7f e5 b9 52 68 7d 60 bf 80 a1 4f cf 99 99 89 3f
       -0.0020129239617829304 0.012500001563197527
000520 d8 89 c0 10 4e 8f 53 3f 2b 0a 8f 60 a6 e6 62 3f
       0.0011938345296661403 0.0023072480730388554
000530 d1 da df d4 63 1c 72 3f 1a 01 96 05 bc 22 37 bf
       0.0044216060323296206 -0.00035302248360126606
000540 10 2b e1 d8 72 be a6 3f df 82 08 86 ce f9 98 3f
       0.04442175767379386 0.024390437060108346
000550 d1 93 07 d6 86 3c 90 3f 76 55 ba 4a 92 b7 5b bf
       0.015855891049699814 -0.0016917160636798745
000560 40 74 c1 41 b0 f7 50 3f f2 ef bb 28 10 98 90 3f
       0.0010356160410289889 0.01620507477399253
000570 6c 57 68 99 46 3c 50 bf 8c 76 c3 11 48 8a 94 3f
       -0.000990933365419856 0.0200587521402356
000580 6b 88 8c d6 16 df 87 3f b0 ca 94 ed 62 69 94 3f
       0.011655977652086777 0.019933267355734585
000590 45 61 30 02 1c ce 53 3f 10 f8 1c 83 cd 66 88 3f
       0.0012088082810404893 0.011914830745464428
0005a0 b3 ac 2e 3c 32 ef a1 3f 08 b2 51 e8 1a 51 8a 3f
       0.0350280474152326 0.012850008215729694
0005b0 7e c3 43 10 23 77 1f 3f 58 78 f9 6c 87 b3 62 3f
       0.00012003089438273985 0.0022828717263072944
0005c0 07 e9 71 42 1e 59 83 3f 10 f1 bc a0 2e 1d 9c 3f
       0.009447323229541128 0.027455071030304146
0005d0 e7 a7 7d 61 3d 69 a3 3f e9 89 78 81 69 11 8b 3f
       0.03791229071687479 0.013216804755818283
0005e0 31 ba 1f e1 c7 a7 74 3f 82 3f 77 3b f3 89 5b 3f
       0.005042820719593653 0.0016808390918079123
0005f0 e8 26 a9 5c 1f 13 99 3f 66 df cb b2 33 16 81 3f
       0.024487009077609395 0.008343128103191776
000600 81 b3 ed e7 eb 78 5a 3f 6e 1e 47 5e f7 14 4c bf
       0.0016157439965482636 -0.0008569915631193145
000610 0c 8f 42 69 fa 89 5c bf 39 3a a2 be ef d3 73 3f
       -0.0017418809339141998 0.004840790274228506
000620 b7 72 c0 e0 c2 c7 92 3f bc b4 2e 38 2a da 8b 3f
       0.01834015366340466 0.013599710311462558
000630 d4 9d c0 d9 ad 16 78 3f 23 b3 5a 4f 77 57 2b bf
       0.005881003478897157 -0.00020860034390093274
000640 a3 02 9b dc 6e e1 94 3f 37 7b fe 9a bf 4e 6f bf
       0.02039120885342761 -0.0038217298787936132
000650 70 60 95 2f bb ba 5f bf eb b2 16 80 0c 48 91 3f
       -0.0019366100298921184 0.016876406972801055
000660 12 e4 03 55 7a ca 54 3f 0f f3 a4 1b 72 69 96 3f
       0.0012689776086161103 0.02188661855437873
000670 ea 9c 5e 0b 54 0b 6f 3f eb 9e 23 bd 8a a5 58 3f
       0.003789581441157365 0.001504312026151251
000680 da 09 dc c9 ff b7 90 3f f8 64 cc 2f 8d 28 88 3f
       0.01632690114548461 0.011796095868293652
000690 71 e3 cc 74 e5 31 3e bf 7b d1 3e c9 9f b8 81 bf
       -0.00046073772391568626 -0.008652923897763945
0006a0 f4 5b 31 d2 42 ae 95 3f c3 86 27 16 17 71 6c 3f
       0.021172565535689317 0.003471894350909861
0006b0 17 cb 19 36 59 f3 8e 3f be a2 77 c3 42 7f 8d 3f
       0.01511258789398577 0.01440288695353453
0006c0 4d 68 db c6 41 0a 61 bf 41 d5 7a 37 e9 09 a6 3f
       -0.002080086202892273 0.043044364950598275
0006d0 a1 29 32 0e c1 c4 93 3f e6 f9 37 df 59 f7 67 bf
       0.019305244914485823 -0.0029255633651239397
0006e0 e4 0f 4d be 40 c5 4e bf a0 69 c5 d0 8e b0 97 3f
       -0.0009390417222694372 0.023134452335719424
0006f0 e5 43 68 40 e3 01 73 3f 3d a1 0a 32 04 9a 40 3f
       0.004640472127463523 0.0005066414342609693
000700 a2 2d a4 55 b8 33 37 bf a3 7e 0b 77 a2 28 aa 3f
       -0.0003540349040498052 0.05109126761612728
000710 db 1e 28 26 00 94 8d 3f ca f4 98 e3 d5 b5 8b 3f
       0.014442444958162983 0.013530417450164828
000720 fa e6 2f ab ff 2c 82 3f c6 24 f1 6f 1c 34 68 bf
       0.00887489072009683 -0.002954536000775751
000730 86 ee de b8 70 d4 80 bf 3c 2b da 83 e1 a2 78 bf
       -0.008217697755632313 -0.006014710348277327
000740 df c3 c8 db 83 35 a2 3f 17 9d 41 47 7d 76 67 bf
       0.035564537600641925 -0.002864117321269465
000750 5a 87 32 50 69 a0 42 bf 36 db c4 ac 3b 48 84 3f
       -0.0005684389328914727 0.009903398714056526
000760 21 3e 8a f4 3b 38 1d bf 60 23 23 c3 87 36 7c bf
       -0.00011146417558393535 -0.006887941666897074
000770 fe 75 84 bb ab 95 8a bf 9f 04 04 b6 64 47 8b bf
       -0.012980786953046494 -0.013319765858343323
000780 1d 87 95 99 3b 29 49 bf 06 89 6f 5b d6 69 61 3f
       -0.0007678547873803708 0.002125662485455429
000790 fa 3c 0b 89 de fb 99 3f 88 48 ef ba d1 c2 64 3f
       0.025374867548461723 0.002534303311656553
0007a0 17 b3 f0 62 ea 2c 86 3f 88 2c 0a 74 da 0e 5b 3f
       0.010827857155243188 0.0016514905293288102
0007b0 2e b8 32 6e ac 68 62 bf 4b cf 64 d0 ab 2f 9a 3f
       -0.002247177866215664 0.025572476000163474
0007c0 ca 23 ec e7 da 4e 84 3f 32 63 d2 53 8c 25 8d 3f
       0.009916029169760327 0.014231773670233847
0007d0 f2 d4 9e 1a 23 17 7e 3f a7 ec 77 b4 16 5c 99 3f
       0.007346284031816129 0.024765352978630386
0007e0 5a 47 21 11 15 32 85 3f dd fa 07 a3 10 08 9e 3f
       0.01034943064238163 0.029327640486367258
0007f0 9d 0c 8c 54 4f d6 9a be 5e a4 05 d9 90 2d 70 bf
       -3.9990466808876187e-07 -0.003949704944127578
