parameters/b3.npy (npy, 1152 bytes, 1 tensors)

array f8 [128, 1]
000000 8d 64 1c 4b d4 1f 94 bf 89 0e f1 b5 db de 8d 3f
       -0.01965266903343781 0.014585224618833397
000010 19 36 2f 34 c0 10 88 bf be 2f 68 b9 1e f4 94 bf
       -0.011750699608366099 -0.02046249395975485
000020 2c da 2d 86 2e 2c 91 bf 35 b8 08 a0 e9 9c 33 3f
       -0.01677010244335457 0.00029926971186256267
000030 49 33 a2 02 3e 0c ae 3f b4 51 12 5e 0d 79 80 3f
       0.05868715078495385 0.008043388779960782
000040 3d 64 84 2a b9 83 83 bf 4c a6 03 67 35 ad 98 bf
       -0.009528586015720925 -0.024098238384715295
000050 7f 86 63 a5 d9 ab 61 3f bc 78 2f fe cc 4d 90 bf
       0.002157139863911805 -0.01592178632187634
000060 3e 0d 26 38 01 f2 7d 3f 43 2c 1b 42 7e f8 8c bf
       0.007310871851930854 -0.014145838158034723
000070 a9 4b 39 1f 51 ac 95 bf 3b 1b 0c c2 b0 74 aa 3f
       -0.02116514924120919 0.05167152756444301
000080 b5 2b ad a9 b5 19 92 3f c8 1e 46 fd c0 a0 8e bf
       0.01767619941828587 -0.014955051163965463
000090 61 41 4c 6f a4 1f 9f bf 4b ae 53 b9 88 e6 66 3f
       -0.030394143384058995 0.002795474089557525
0000a0 18 02 5d 98 61 21 87 3f c7 72 dc ce b4 6b 9c bf
       0.01129413839555675 -0.027754616857339067
0000b0 49 5c d1 2e ae 78 6a 3f 92 7c 02 8c a4 8c 93 bf
       0.0032313730248847744 -0.019091197057261207
0000c0 37 40 55 f3 2a b9 a1 3f b2 b5 1f c6 00 0f 98 3f
       0.03461584301351233 0.023494731991311198
0000d0 3e cc c5 f4 a7 8b 8a 3f 5d 3d b7 75 d5 41 87 3f
       0.012961685330742264 0.011356036810780063
0000e0 95 ce 26 70 64 37 a2 3f f4 1f 69 59 a6 1d 91 bf
       0.03557885998762093 -0.01671466751784574
0000f0 0d f8 f5 da b7 88 53 3f 09 13 21 78 a9 bf a1 bf
       0.001192264124113776 -0.034665389932831366
000100 0d 3a e8 ab d8 be 89 3f 4e b2 2a 81 9d 0e 8d bf
       0.012571041818799445 -0.014188032631261251
000110 ce 51 49 bb 40 36 80 3f ed e0 4f 51 93 e5 8d bf
       0.007915979114081841 -0.014598036688753225
000120 d5 41 81 76 22 c3 79 bf fb f5 5a 91 52 44 59 bf
       -0.006289610501042782 -0.0015421682668795833
000130 89 fa 11 be 56 9b a0 3f f7 23 74 23 b2 05 66 3f
       0.032435141279155984 0.0026882628695870064
000140 7b 72 34 76 e6 6f 86 3f ba 7a 03 37 8f a2 6f 3f
       0.010955620271994029 0.0038616940656618056
000150 a8 42 32 d3 50 ef 8d bf a2 f9 4d fb f9 a9 8d bf
       -0.014616614766312111 -0.014484360677440137
000160 e6 26 83 ca 21 bf 96 3f 16 83 05 a0 85 8e 76 3f
       0.022213485703821777 0.0055070132951591435
000170 62 72 16 ea 90 28 75 bf 4e 4a fe fd ee 60 91 3f
       -0.005165639945883345 0.016971334698221256
000180 b3 f3 58 c6 ed 46 95 3f 87 cf 67 c8 7e c0 95 bf
       0.020778384429138885 -0.021242123586446417
000190 86 7a 1a 90 d2 cb 77 3f 6d ed b0 a9 63 47 64 3f
       0.005809614669174073 0.002475447324767613
0001a0 b1 27 a7 45 30 06 83 bf 95 89 08 8f c8 2b a4 3f
       -0.009289147496833157 0.039396541080594684
0001b0 58 cd 54 eb 9b 33 a3 3f 8a 0c ae 28 e7 16 a6 bf
       0.03750312087722801 -0.043143485751920244
0001c0 f7 e0 a4 ae 1e c5 93 3f 54 20 cd cc be 74 9f 3f
       0.01930664006178603 0.030718785524442474
0001d0 4a 97 eb 67 80 7d 93 bf 03 6a e3 d9 fc 95 3e bf
       -0.019033438055792197 -0.0004667036354370215
0001e0 61 3d f4 29 a7 1c 95 3f d6 23 2b fa 57 37 9f 3f
       0.020617114959404662 0.030484556812357365
0001f0 93 b9 e6 48 e0 b2 a6 3f 9e f7 78 19 cd a1 81 bf
       0.04433346643360205 -0.008609392490253328
000200 19 d3 95 1d f5 ed 97 bf 62 29 73 d2 dc 33 90 bf
       -0.023368673258533954 -0.01582284006580304
000210 41 53 13 30 b0 31 9c 3f 59 59 21 ba 05 8a 7e 3f
       0.02753329556874751 0.007455847140667459
000220 0e 63 43 de 3f 09 a1 3f bd 9c 72 48 a2 f6 75 bf
       0.03327369297193715 -0.005362161558117137
000230 3d 33 50 65 76 01 9c 3f f1 81 23 55 91 f8 9a 3f
       0.027349328931495654 0.026338835545972775
000240 1a 01 5f 63 f8 79 91 bf 01 22 08 b7 32 be 90 3f
       -0.017066842141276607 0.01635054819237958
000250 ea b2 52 85 41 3b 92 3f 02 6a aa be 0a 57 9f bf
       0.017804168474571926 -0.030605476271924566
000260 d9 b2 95 06 d6 f3 82 bf a7 bc 63 bf b6 62 80 3f
       -0.009254142833662925 0.008000781741854658
000270 84 c4 84 b8 43 35 90 3f 5c 4e d5 61 e1 9e a4 bf
       0.015828188073275587 -0.04027466124776133
000280 3d ca 80 62 49 07 81 bf 7d 55 fe 4d 8d 44 96 bf
       -0.008314679449630375 -0.021745880017609565
000290 56 c9 42 9c 3a c1 90 bf 48 93 71 41 4c 53 7a bf
       -0.016362109935195455 -0.006427095292654901
0002a0 3a e9 e1 97 1e 04 98 3f 0e 14 86 ca d0 7e 5b 3f
       0.023453214664621337 0.0016781844115894037
0002b0 33 eb e5 2c 85 c4 8d 3f 38 98 99 45 c1 03 77 bf
       0.014534988815957916 -0.005618815391789815
0002c0 60 3e 63 65 3d cf 9c 3f dc d2 73 a2 f3 16 90 3f
       0.028134307206356346 0.015712553777990176
0002d0 84 1a 6f 47 b3 e0 76 3f 8a b1 21 24 e5 7b 8a bf
       0.005585384663339913 -0.012931623616361038
0002e0 42 59 ed 7a 00 ee 83 3f 9e 6a 37 b0 59 91 a2 bf
       0.00973129630226011 -0.03626518512802089
0002f0 2d bd 1c d0 15 48 89 3f 7c c9 00 be e5 ab 77 bf
       0.012344522870619013 -0.0057791685394924484
000300 00 20 9f b0 ea f1 7c bf 8b 9d 69 b3 18 59 8a bf
       -0.0070666472983660356 -0.012865250563847372
000310 03 65 16 98 74 4e 81 3f e7 51 19 40 04 bf 76 bf
       0.008450423137036816 -0.005553261378356634
000320 6a 90 eb fc 67 a1 4b 3f ac d2 34 ea b7 36 96 bf
       0.0008432157281643819 -0.021693109197445423
000330 61 1d 3c 36 c0 a0 88 3f ba 6c 49 e9 02 8d 62 bf
       0.012025357871165711 -0.002264505086981919
000340 f9 2d 5b 29 d3 d3 74 bf 65 67 af 7c 1b 4c 70 bf
       -0.005084824418826178 -0.003978831645292978
000350 48 f6 fa c4 41 9b 60 bf 1b 47 75 70 a7 5b 90 bf
       -0.002027157264676647 -0.015974632491015144
000360 36 e6 b1 d4 ac 48 a4 bf 01 b2 26 95 3d 2a a1 bf
       -0.03961696716664813 -0.0335253948754577
000370 d4 02 b2 8e 1d fc 96 bf 40 09 1a cd df 20 4e 3f
       -0.022446119150574997 0.0009194462565605202
000380 d4 64 92 5d 30 76 a3 3f 0b 8e 2a c8 39 d7 a3 3f
       0.03801108495935926 0.03875141685901092
000390 7e d6 1b 56 60 54 93 bf 5a 61 2c fc 80 fc 83 3f
       -0.018876557593975545 0.009758956618995885
0003a0 83 2a 34 8b 42 23 33 bf c7 c7 5f 78 1d d1 7d 3f
       -0.00029201864818221445 0.007279505842221873
0003b0 84 64 c4 0a 71 0d a4 3f 2d 31 0b 94 79 62 81 3f
       0.03916505104479831 0.008488607244907154
0003c0 ed d1 e7 a1 22 29 82 bf 37 f6 d8 16 e3 f3 9d 3f
       -0.008867521825757197 0.029250667829037815
0003d0 66 84 46 d2 32 79 50 3f c0 56 9b e8 32 d2 45 3f
       0.0010054584791776787 0.0006659267976043201
0003e0 df e9 9a 6a 75 fd 92 bf dd f0 e7 07 44 e2 a1 bf
       -0.018544993049298127 -0.03492939564236661
0003f0 68 08 2e c8 61 bf 93 3f f8 e4 ce 22 7d 60 92 bf
       0.019284751742369016 -0.017946200608752044
