parameters/W3.npy (npy, 262272 bytes, 1 tensors)

array f8 [128, 256]
00000000: 74b8 81c3 4651 813f 09e5 be24 6d51 a93f
00000010: 0e9b 54a2 c43f aabf 7262 a050 e8eb adbf
00000020: 48ee 3988 b07d c1bf 3022 4f28 b4af b13f
00000030: 6f5b 8038 ec60 9e3f 7b8f f5e7 2378 98bf
00000040: c0d2 bdfe c621 b73f 1471 d7d6 b169 c73f
00000050: 2ae0 e60b 4636 83bf 0290 e497 7bcf 92bf
00000060: 5301 be0a 4436 b3bf 1493 4f48 c33b c43f
00000070: cb73 6bb0 9a92 ba3f e405 2457 430c 873f
00000080: 00a7 7de6 c7ee b03f d9fd 1d8d 5640 9a3f
00000090: 0b5b dc1c c173 613f aa1c 8f10 8224 b7bf
000000a0: 60ca 3516 258c 9cbf fd6a b0d2 8af6 b23f
000000b0: 75c7 6540 03f1 b3bf b6f4 9fcd b6c6 af3f
000000c0: b1f9 72bb 4c82 8e3f 1f2f 222b eb0e c33f
000000d0: 46b0 83ee dc16 a73f fffa 7041 a4ca a53f
000000e0: 3bdf d8e9 ae63 92bf 01b8 79de e84b 8e3f
000000f0: 3332 f5a2 522f 9a3f ce19 8c9f fcb4 b13f
00000100: ffcd a58c 8e94 adbf 44a2 a323 e0bf ab3f
00000110: d648 eea1 4793 ac3f 593f 5606 4d5c c83f
00000120: bd17 21f8 3d32 c43f 3e49 51b4 fc43 a73f
00000130: 9651 abfc fc10 7bbf 42cb af61 f1e7 a23f
00000140: f90f b87d eea3 833f 7229 0955 8c1b c2bf
00000150: 4051 910b b7e0 723f 62f7 f2be ad95 a9bf
00000160: 208c 55b6 b5db 92bf a35d 0e83 7158 a5bf
00000170: dc09 af16 5ed1 ab3f 09a3 7316 12ee a7bf
00000180: 76d6 2e49 6089 c63f ac22 afbd 93b9 b9bf
00000190: 5280 1fe6 a550 b6bf d2bf 8ddd b7bf b8bf
000001a0: 9baf 14e0 a9a0 b03f 3a0d 09c6 800b b63f
000001b0: 95ad 63ef ffb8 b0bf 5a98 1b38 044c b8bf
000001c0: f7d6 492e 1fee 823f 2641 f87a 60f1 aabf
000001d0: b231 4674 8e02 bdbf 73c1 b448 dea4 a43f
000001e0: 4cda 5b8c 2558 c03f 8747 0b7d 3830 b83f
000001f0: e9f6 6b47 1648 97bf e399 96a5 f569 903f
00000200: df64 1468 d430 ad3f b75b 5cf9 1edf 82bf
00000210: 2414 3540 102d 8f3f 355e 56ad 7a48 8dbf
00000220: ea66 0ed8 cc9e 95bf 21ee 1e1c 7f6c a4bf
00000230: 542b 84c5 0df5 9abf 4360 7433 a619 95bf
00000240: bae4 d3b1 d049 a1bf e8fe 7875 ae92 87bf
00000250: e641 d50a d3f4 9b3f 7e5a 1da3 5933 b3bf
00000260: bde6 1642 d7fe b73f 7385 cdc6 1614 ae3f
00000270: 0247 d139 a3f9 b83f 042a 3575 970c b0bf
00000280: b758 b3b2 4d4c 65bf edce da7e 805a a53f
00000290: 42bb 6dcf b384 8fbf b316 1b2e edc3 773f
000002a0: 6f69 2cf1 3148 c3bf dc22 9538 3e8f b1bf
000002b0: f531 90d1 1ec6 703f 045a 0a73 4f77 b1bf
000002c0: 914a eb68 b8a3 c0bf d7a1 9821 8b48 ab3f
000002d0: 60f8 f5a6 9354 a5bf 5d90 0cf7 b560 acbf
000002e0: ebd9 f688 6a06 a03f 32a5 6fed 86ac aebf
000002f0: ffde 5661 355b 87bf 13ea bfa0 5286 c9bf
00000300: 7a75 be2e f22f a73f f903 385c 1098 a0bf
00000310: 4298 0d20 574c b9bf 51e1 a1cc fb7f a4bf
00000320: 3b5d 9ba4 628e 9dbf d4f3 4ec7 19ae bbbf
00000330: aa89 60c1 b5da 763f 421b f60c fcb8 a53f
00000340: d680 d1ce 24c7 b2bf b9b1 e0b0 de5e 8c3f
00000350: 2995 8e51 1428 99bf f05a 1c65 9735 933f
00000360: 6309 e1e3 f043 c1bf 97a5 85c8 27fd 953f
00000370: c0b6 5a53 1e58 b5bf c153 245c 4358 983f
00000380: e3ec 1681 8cda b03f e3a9 f04e 914c c13f
00000390: 362e 0f38 2378 b43f 83c3 e5fa cd84 89bf
000003a0: 0a7b b18b 784b b73f 15a5 a740 5d60 a53f
000003b0: eecb 1ebd c0e1 a6bf 55c5 d630 260e cf3f
000003c0: 9424 09f2 c855 a3bf 5e78 622e a51c b1bf
000003d0: ad03 ee46 1c63 a2bf c71e ae6f 26a5 9d3f
000003e0: a0d3 8171 0dee 8dbf 1f35 66c2 44ee bcbf
000003f0: 50d7 299a cd97 ad3f 5d5d 5c45 e23b a03f
00000400: 85c6 8e88 e0cc 93bf ec20 8e4e a630 9a3f
00000410: 1215 63d5 bb98 c43f 7ce4 f891 a889 a4bf
00000420: cb5c 076c 2ece ba3f dc1b 3d15 3db8 81bf
00000430: fe71 6fe6 9083 b2bf 16fc 6a56 bbd9 bc3f
00000440: 9bdd bcea dda5 793f 7cff f650 67ad c4bf
00000450: fcf0 11e4 6fc0 b63f 6596 69ba 2da1 a13f
00000460: 62bb 0bf0 e9a1 b0bf aa63 a1ae 806b ae3f
00000470: 8540 fb8b d89c b73f d4b5 1b87 16a6 c3bf
00000480: 4ca8 2b84 c75d c3bf 909c 2f2c b4c1 a4bf
00000490: c517 10ee aed9 b3bf 868c 3f55 3441 b73f
000004a0: 1942 7808 448c ac3f ad3f acc8 6395 7d3f
000004b0: 9e7b d59c de79 913f 5111 a0f9 9081 b53f
000004c0: 3e39 bdc1 14b5 b6bf 8fe2 42bd 8fdc b43f
000004d0: 683c 7e25 a0de c13f 8812 629a c3ed 90bf
000004e0: 5115 ede6 dd04 a33f 0ea7 4ee3 85d0 bebf
000004f0: f26d 1d84 4728 503f e90d 1ed2 c3fe 823f
00000500: 1ad2 62bd 07eb 913f aaf0 14c3 c0e5 ab3f
00000510: bf55 3e90 70fb cc3f 5f36 31d0 7218 98bf
00000520: 0a09 8657 5b65 c5bf b578 a1fc 2fc5 c3bf
00000530: e360 de2b ea22 bc3f defa 248d 7853 b53f
00000540: 68d8 e425 c7ff 7ebf b517 a9f0 49fb b1bf
00000550: c868 088c 133b b0bf 61af c479 b208 883f
00000560: e120 2436 21c3 a6bf f1a2 fcd2 a62c b23f
00000570: 38db 1937 24fa babf 7677 dc3a 0f02 923f
00000580: 3753 0177 5c13 acbf 759d 4266 6299 80bf
00000590: 907e 460f 6c4f c6bf 8278 75fb ee45 bf3f
000005a0: cff4 3edc 1141 adbf f628 6dff f9aa 82bf
000005b0: b8d3 84ed 66e2 783f b577 0bce b516 adbf
000005c0: 9c02 4a0d 946e 923f 8269 7231 fa47 b13f
000005d0: fdf6 c157 4873 bc3f 6916 cb4c b3fa bd3f
000005e0: a4a7 31d5 5d2d bcbf ebf6 8543 77b8 bf3f
000005f0: 33d0 6b8b 4238 a4bf 7a7c 331b de2d b5bf
00000600: 2a12 f1fb bd0a c6bf 8ea8 a7e4 24e5 bcbf
00000610: db83 3d3e 1761 ae3f fd5d 256b 0fcf 89bf
00000620: f089 723d ab49 653f 0173 cc09 7981 b3bf
00000630: f71e 1c50 ede5 6bbf c020 613e bfac c1bf
00000640: 28e4 72f9 b667 bb3f fc06 2a28 f89e b73f
00000650: 5158 f66b 62ac a9bf d3c4 7492 d7db a2bf
00000660: cc03 eecc fd7b a83f a0f5 8525 5738 ab3f
00000670: 9ddd 5195 059f cfbf cfe8 5315 501f 99bf
00000680: fc53 e5d8 1453 83bf 95b6 882f f203 57bf
00000690: e45e f03f 9e8e b53f 8199 26de 5a33 c0bf
000006a0: 2036 733b 662d 9a3f f460 5d72 4e9d 7a3f
000006b0: 6173 49ff 2a78 b3bf b98c 63e3 19b2 a2bf
000006c0: 3efc b3ea 9aca bbbf a243 f700 05bc adbf
000006d0: 608f e45f b296 8cbf 8d11 1c31 e473 bd3f
000006e0: c767 29df 80eb a5bf 9197 769e 4b14 aebf
000006f0: 5248 4170 788c b13f 6748 247e c0d2 b4bf
00000700: d860 ff7f 1ad9 a93f a741 74ba 91bf b03f
00000710: 2cc7 f00f db25 92bf 9fe8 f42f 3134 593f
00000720: c73e cbbb 39b1 b63f ffdb f902 202c b5bf
00000730: fc72 7780 2a9b a43f 6f7f e168 5f63 96bf
00000740: e648 97f8 e785 89bf fd75 c54b 4c78 b3bf
00000750: 1d66 5c5f e10d a13f c6ac e05a 9661 b13f
00000760: 01b6 7593 1700 9fbf b545 e0e9 6ddd b53f
00000770: 19fc 9b42 47b8 97bf adcd 6014 a1cd 92bf
00000780: 1054 b0ab 2aaa 953f 7519 a8c6 bbb8 bb3f
00000790: fd6c 0576 7469 b83f 4a73 301a 118f a53f
000007a0: 4d55 4d87 6a59 933f b05a d37c 479f b23f
000007b0: e069 8de6 37ab a1bf 1561 dd26 9018 9dbf
000007c0: cdce 5e7f 6325 c43f f8dd a302 97f8 adbf
000007d0: b0b3 26a8 cb4c c13f 4c9e 3d03 2829 cdbf
000007e0: 8349 6c76 65b1 7dbf 9fa9 3acf 8d0a a63f
000007f0: 2712 44c8 7b35 64bf 66eb 00b7 6c97 9bbf
0.008455803719894052 0.04944935868793194 -0.051267762008413084 -0.05844045623979789 -0.1366482415358965 0.06908727630719436 0.0296666059003558 -0.023895798714320442
0.09035915107035475 0.18291304579077716 -0.009380862463203316 -0.01836960901813712 -0.07504678022633486 0.1580738165931953 0.103799503394341 0.011253858658622336
0.06614350678651348 0.02563605533896216 0.002130391286196858 -0.09040081886552068 -0.027878360252950762 0.07407443660524034 -0.0778963119717256 0.06206294307774256
0.014896964521878471 0.14889278036241024 0.045096305957344415 0.04256165789455756 -0.01795838644304058 0.014793223657047607 0.025571147152094475 0.06916788954922667
-0.057774023693948344 0.05419826922463192 0.05581115581220934 0.19031679925364633 0.15778326621710717 0.04544057561055802 -0.00660799811403869 0.03692583386864225
0.009590018474234784 -0.14146570350778692 0.004608836193331023 -0.04997008281632877 -0.018416251424593466 -0.041690394638119764 0.054331722516071074 -0.04673820995396311
0.1760673863733932 -0.10048793202362089 -0.0871680914710862 -0.09667538794542388 0.06495153160784499 0.08611302218291864 -0.06532287210909822 -0.09490991945094276
0.009243243789778683 -0.0526228094205428 -0.11332025850987895 0.0403203452827964 0.12769002297837273 0.09448578884919644 -0.022735927685963473 0.0160292036358899
0.05701316614631379 -0.009214632019888798 0.01522267051644561 -0.014298399367176898 -0.02111358708098169 -0.03989026277801267 -0.026325431042134653 -0.020605656519450354
-0.033766290385707845 -0.011510241470318275 0.027301118408390133 -0.07500229103366426 0.09373231280815282 0.05874701668541151 0.09755916749534424 -0.06269213305964888
-0.002599860910417719 0.04170609997291117 -0.015389828460426028 0.005802084431427867 -0.15064071918534291 -0.06859196549806817 0.004095192322904219 -0.06822678145031352
-0.12999634860041856 0.05328783784017659 -0.04166089451881372 -0.05542534485565007 0.03129895135809931 -0.059910027011776626 -0.011404435189305227 -0.1994117054853893
0.04528767414670205 -0.03241015554159072 -0.09882111103579042 -0.04003893731072828 -0.028863469406897862 -0.10812531581809931 0.005579671842527759 0.04242694528789183
-0.07335119294430412 0.013852824948195829 -0.024566953161088954 0.01875912241583938 -0.13488589407831872 0.02147352372540964 -0.08337583098429047 0.023774197100539633
0.06583479072189706 0.13514915804382985 0.07995815390238978 -0.012460335940632344 0.0909953442619377 0.041750826017798705 -0.044691107831930185 0.24261929878916058
-0.03776386217629937 -0.06684334165990566 -0.03591240278092953 0.028950310293594208 -0.014614205385649559 -0.11301069017482178 0.0577987909972949 0.03170687767686318
-0.01933623155100019 0.025576208634022032 0.16091106337822986 -0.04011275083434726 0.10470857751294031 -0.008652188501981621 -0.07232003808844209 0.11269732341587288
0.006261698592246924 -0.16154185727463843 0.08887385671727438 0.03443282032530418 -0.0649706088113198 0.059413930241766735 0.09223702828899334 -0.15350610348779858
-0.1512994189609479 -0.04054034270648643 -0.07754033386308297 0.09083869057899294 0.05575764277830703 0.0072225473220583316 0.01706645805586115 0.0840082749783211
-0.0887005780216201 0.08149050112377608 0.13960649328916763 -0.016531997964664785 0.03714650577470969 -0.12036930846684532 0.0009861658476982807 0.009274988031171954
0.017498131689267372 0.054487251104064896 0.22642333071841667 -0.02353076358513417 -0.16715566419231492 -0.15445518336759326 0.10990775652897215 0.08330491491231437
-0.0075681475848822025 -0.07024061322689941 -0.06340143364687656 0.011735338536332742 -0.04445747171308923 0.07099383021398943 -0.1053793558620385 0.017585981338121802
-0.05483521416377928 -0.008105057473882774 -0.17429877038829433 0.12216085089809961 -0.057137067924011846 -0.009115174396033581 0.006075288831472507 -0.05681388988681083
0.017999947844603 0.06750453669739012 0.11113407270928728 0.11710663437687575 -0.11006723837786453 0.12390847586172142 -0.039491729277785124 -0.08273113407220647
-0.17220282365646372 -0.11287146170039561 0.05933449396866993 -0.012601967294059152 0.00259860463445815 -0.07619434823250161 -0.003405536176504738 -0.1380843214594787
0.10705131139810986 0.09226942997522863 -0.05014331405543316 -0.036833511951394414 0.047820979371870104 0.05316421826408235 -0.24704046050076736 -0.024533511449569553
-0.009435809010634337 -0.0014047494024781771 0.08420743046769591 -0.12656722876745266 0.025563809755842937 0.006497675354545363 -0.07605236752119772 -0.03651505375617021
-0.10856025915198672 -0.058075100295929674 -0.013959306289116291 0.11504961203542603 -0.04281237339155513 -0.05874859151235435 0.06854965916252923 -0.08134081916458201
0.050484493374541806 0.06542311479666428 -0.017722533080991074 0.001538322481634803 0.08864174685299551 -0.08270454476028986 0.040246322805364415 -0.021863451744479286
-0.012462436937230991 -0.07605435228239084 0.0333090237529172 0.06789531439487737 -0.030273788809997985 0.08540999374260745 -0.02316390365649221 -0.018362538212569102
0.021156946877528837 0.10828755950942599 0.09535911446930707 0.042107138106280376 0.01889578295534493 0.07274290845394193 -0.03450941743240654 -0.028414013263813837
0.15739101142172843 -0.0585372153017793 0.13515611372477343 -0.227818490583774 -0.00724925645660546 0.04304927019741744 -0.0024669091818643354 -0.026944826764729334
