parameters/W4.npy (npy, 10368 bytes, 1 tensors)

array f8 [10, 128]
0.04897994016552431 -0.33051765949875356 0.019213341073538694 0.18274572818387483 0.14859400141444978 -0.035837958198830816 -0.18702205442198144 -0.0563479270714137
0.13274099754603097 -0.11464444146431033 -0.2096020821698449 -0.2510462422756516 0.003538931214091214 0.06863709778544924 -0.019578948577528853 0.03415403067958992
-0.2561814982336197 -0.21161437322727608 0.07524967342541806 -0.14463488397961036 0.011729843002959704 -0.012469724236220985 -0.4605452557215927 0.10463181251151361
0.062429241173466675 -0.19963010809181253 -0.2936108247474377 -0.3689496083950889 -0.22870648121990292 -0.45542135390403304 -0.0333319572432255 0.060583113695573114
-0.20026825502899442 0.04729843720537768 -0.24651378622512216 0.08618748342433398 0.19889536770175023 -0.1728184200187439 0.2729216558066424 0.19898214412640103
-0.18978894234093616 0.2107535711048493 0.19426102280728177 0.23203618987209193 -0.13308466163931734 0.14805373589391443 0.3701353470480989 -0.34936813728981303
-0.3813012952303916 -0.10657641701723256 0.25002694081643684 -0.2915836561416592 0.04332399857608685 0.03577719490107773 -0.004966222315081489 0.2215495252058964
0.09206383408084377 -0.22704943482515438 0.05034742209834099 0.060563875235505174 -0.050337941393427565 -0.02910634617462194 -0.21119054791103034 0.03753788090182683
-0.14657558656801828 -0.05941773105673535 0.15985165055359668 0.0024787934987007838 0.002614332057383619 -0.017947484735486168 -0.2510476987394852 -0.2538969474274983
-0.1655195239045676 -0.11172990176697131 -0.09734206260613713 -0.03604651998861431 0.28462494488688406 0.02466276759400625 -0.08790999515705478 0.24842558012432994
-0.19508713626867913 -0.049669729399217814 0.16726082998259895 -0.13219242415870444 -0.20463514875485675 0.023419931839221583 -0.06657196770134563 0.2367131207437665
-0.3834096870664358 -0.1259701007162469 -0.040827453159854185 -0.03822439307267531 0.3048841519161653 -0.017327176300241554 0.1631594053415509 -0.013865037799630052
0.14421667959999282 0.3038090613353391 -0.29473712406887687 0.021681989951527033 -0.2536235045910628 -0.19116958782085683 -0.17742849782727177 0.019983186093474686
0.0915036436505747 -0.015014287798813366 -0.01781996196052441 -0.13320361131522776 0.015058442555645283 0.012858599588554018 0.08784320110739073 -0.12606933140190968
-0.23861635545585638 -0.20381629614696573 0.07184255677772702 0.08420673360771576 -0.14711761330928802 -0.26230035381358496 -0.07379855474140982 0.08646446376795511
-0.09921156584824345 -0.06685373141787902 0.0924735953756184 -0.0861433628952135 0.21385787683605298 0.26336910656359974 -0.060086158117305 0.012900925082790409
-0.2821083554118553 0.3482929601736505 0.15091638266010202 -0.2159293108522617 0.050624895439022384 0.07640827013934542 -0.16944360063107652 -0.1491078959942238
-0.11979161341712438 -0.27500001103050475 0.09976116420674531 -0.1834713882534986 0.050539740937026505 -0.014129478150939774 0.13565415663036048 -0.1892605717000662
-0.14565791357544253 -0.0241699552503714 0.08360559149193168 0.055082717635361184 -0.14399336461572493 0.0761060895421502 0.08023937509312869 0.01795273480488863
0.19780235852758243 0.01090770830742174 -0.13484053186371958 -0.08156620167484033 0.19048142790904024 -0.01310076417811352 0.03449266368745541 -0.0572427138710399
-0.21293683152272325 -0.19207478871485384 0.1627730560215363 -0.34564477536059524 -0.02553219043240004 -0.09893909200227961 -0.027667417790546125 -0.007233084389660261
0.1902215902605022 -0.03771905518722145 -0.07489666897009598 -0.04840991373630028 0.48828382162993156 0.017194675362157047 -0.11205521823192871 0.24782613105118992
0.0030109873559005635 0.11071160970276887 -0.30543749062410686 -0.13289203716956896 -0.011074802372805451 -0.3480028994897693 0.31518977048897173 -0.029278366566600607
0.14790068928230957 -0.044309213935992436 0.10318767337646521 0.09325951583845696 -0.24572472966372094 -0.11702417041658374 0.007277056504149393 -0.15109515137253354
-0.12008325751234844 -0.25752015566764114 -0.0043420144746835814 0.06456405400870495 -0.26462379059749824 0.007509166299244984 0.47866852167165874 -0.29874727470090756
-0.006196743480088244 -0.41141177484756086 -0.0427399594474896 -0.043554364210030116 0.007650862691578359 -0.5053843245545081 0.012104163321173447 0.04051907356578595
-0.013730911707068706 0.10769078661144454 -0.02131060454033845 0.28985845923489395 0.21577309698243888 -0.1114467214825526 -0.022445257861700794 0.00197290475118629
-0.006354434469691344 0.02575488551912128 -0.15763141994447905 -0.07904968209451471 -0.19711654766151185 -0.0029174777092742777 -0.04819527170611085 0.11169388978880625
-0.4253427225792276 0.0710132018479537 0.1470802056895315 0.17502649228377168 0.24343269110368582 -0.030445132468283825 0.3663161320214649 0.33302519055245994
-0.08301927581141885 -0.04656381341645274 -0.2124004456089209 -0.05742584799658332 -0.19926675444019254 0.18755166792808095 0.1348672343244379 -0.07107944600050342
-0.4876877116436276 0.3000941495268381 -0.3371935529826869 0.23480458565517023 0.22931309415859513 -0.07333150750044279 0.01611970815889133 -0.0792622283342264
0.03777049944168981 0.19699608770151472 -0.1594191691115253 0.0806997603062189 -0.14762978242430477 0.07650338829844781 -0.0027287066890393217 0.020321397500063686
00000000: 8f88 5712 e613 a93f 0c0c 938a 3327 d5bf
00000010: c720 3b7e a9ac 933f 0548 0447 3664 c73f
00000020: b879 3ad4 2005 c33f bcba d654 5a59 a2bf
00000030: 22c3 afb3 56f0 c7bf d42f f0af a2d9 acbf
00000040: 2839 a631 a8fd c03f eae4 c18e 5659 bdbf
00000050: 0de7 0bb4 3dd4 cabf 2fe3 1642 2411 d0bf
00000060: 045e 793a adfd 6c3f 58e6 476a 3392 b13f
00000070: 437c 52ff 800c 94bf 3541 9719 a37c a13f
00000080: 443c 3015 4765 d0bf cdf5 2f06 2e16 cbbf
00000090: 0598 6506 9043 b33f a1ce 4658 6583 c2bf
000000a0: dfed ade0 d005 883f d614 470e ba89 89bf
000000b0: 9bbd e9ce 9279 ddbf 05b0 db84 26c9 ba3f
000000c0: ebea 4eba b9f6 af3f 5690 c6b8 7a8d c9bf
000000d0: 62ad 820e 85ca d2bf 5373 7bd1 de9c d7bf
000000e0: 2182 9c04 4146 cdbf 48be 3a9b 9f25 ddbf
000000f0: f5ea 8ae4 e210 a1bf ef50 06f8 bf04 af3f
00000100: f664 e3e2 63a2 c9bf 37e4 e531 8037 a83f
00000110: f2cd ec84 c38d cfbf 75ce a106 6210 b63f
00000120: c16d cd45 6775 c93f 273e 10fb e91e c6bf
00000130: 16d2 8364 8c77 d13f 9063 c134 3f78 c93f
00000140: 8595 3f0a 014b c8bf 858c b417 f9f9 ca3f
00000150: ed21 ec91 8bdd c83f 379a 7ea3 5cb3 cd3f
00000160: 3188 ab0e eb08 c1bf 9784 dbc0 6cf3 c23f
00000170: 8e92 aa2a 4cb0 d73f d925 fb2c 0c5c d6bf
00000180: 5cf7 3b8c 3d67 d8bf b226 9d91 9748 bbbf
00000190: c83b 7bff 7000 d03f 5d4c cb7e 4ea9 d2bf
000001a0: 1451 082a 902e a63f e9e2 1574 6351 a23f
000001b0: 09d8 d826 7657 74bf 4b11 9a1e bc5b cc3f
000001c0: 3387 85d4 7e91 b73f f81c 93b4 f40f cdbf
000001d0: 3258 b326 23c7 a93f ca39 e96e 3a02 af3f
000001e0: c8c2 1008 e5c5 a9bf 0248 b4d3 0dce 9dbf
000001f0: f947 40b8 4a08 cbbf 2c42 ab45 2a38 a33f
00000200: d8cf 5923 fdc2 c2bf 35e5 6137 006c aebf
00000210: c66e abd5 0476 c43f 84aa 5520 684e 643f
00000220: 38bf fed5 a66a 653f 4bff ef4f d360 92bf
00000230: 189e f45d 2a11 d0bf 6f57 70fb d83f d0bf
00000240: 8482 0267 be2f c5bf 220e 13b2 549a bcbf
00000250: ab25 6bcf 68eb b8bf d1ae f880 b074 a2bf
00000260: dc8e 7a8b 4b37 d23f ecfc fa50 3241 993f
00000270: e0e9 30fa 4481 b6bf 7dd9 0fcf 68cc cf3f
00000280: 8477 1283 9df8 c8bf d7da bd8e 4f6e a9bf
00000290: 84aa 5689 cd68 c53f 3f32 456d aeeb c0bf
000002a0: 77d1 c10b 7c31 cabf 2fc8 4b05 65fb 973f
000002b0: ce8e 1b48 dc0a b1bf 3075 1094 9d4c ce3f
000002c0: 3be0 bac8 c889 d8bf 4bd0 6ccb c91f c0bf
000002d0: b67a 3300 56e7 a4bf 7d2c 50cc 2592 a3bf
000002e0: af1c 63d1 3883 d33f b08f 2a1e 37be 91bf
000002f0: c306 fd4a 68e2 c43f dff9 41df 4565 8cbf
00000300: 0fb8 3531 b175 c23f b57a aa8f 9b71 d33f
00000310: 36bf 3219 f9dc d2bf ff1a 04b7 cd33 963f
00000320: 17cb 6d14 5e3b d0bf b116 d7bb 3e78 c8bf
00000330: 00f5 c51d fab5 c6bf f825 f7ea 7876 943f
00000340: aead f164 c86c b73f a190 8c98 cfbf 8ebf
00000350: 897d 5867 653f 92bf 816c 27e1 d00c c1bf
00000360: 0f08 71f2 f5d6 8e3f 253f a405 9c55 8a3f
00000370: 47a4 ee5b e47c b63f 402c b333 0a23 c0bf
00000380: 659f 7c11 fb8a cebf ace9 2b03 a716 cabf
00000390: b244 d217 4664 b23f 35b8 f28e 928e b53f
000003a0: 921b eafc bfd4 c2bf eaf2 566c 87c9 d0bf
000003b0: 673e 1b4b 76e4 b2bf 8648 26fc 8822 b63f
000003c0: 0a02 b4de ed65 b9bf f32b 0e7e 531d b1bf
000003d0: d1be e17b 59ac b73f cf03 67ce 7d0d b6bf
000003e0: 2d5d 80e5 b15f cb3f e1e9 dd18 0adb d03f
000003f0: 70ba 1ce8 9cc3 aebf c9c2 8cda cc6b 8a3f
00000400: 5c06 1b34 100e d2bf eedc 578e 6e4a d63f
00000410: 5556 fa5f 3a51 c33f 2edc 2d58 92a3 cbbf
00000420: 714c 8c9c 81eb a93f c475 640d 7e8f b33f
00000430: fb0c 9df1 53b0 c5bf 886e 6fb0 f715 c3bf
00000440: fe2c f6c5 a9aa bebf 5ea4 71a5 9999 d1bf
00000450: 91c9 ad99 f289 b93f 9f76 268e fd7b c7bf
00000460: 3f18 f24c 58e0 a93f f7eb 8a74 eaef 8cbf
00000470: 339d 258b 1d5d c13f c9e0 efbe b039 c8bf
00000480: 37e5 9a23 eba4 c2bf 8d6f 623d 02c0 98bf
00000490: 1778 3811 2d67 b53f dc29 a34d cd33 ac3f
000004a0: 16ca eee3 5f6e c2bf d427 9c4d b07b b33f
000004b0: fd5f e053 918a b43f 716a 71a3 3362 923f
000004c0: 0c4c 7972 9651 c93f 4e31 a3d3 c756 863f
000004d0: 78d4 435d 7442 c1bf 5a02 a7c8 85e1 b4bf
000004e0: cdae ae07 b261 c83f 65b2 94cd 92d4 8abf
000004f0: 01a6 fabc 05a9 a13f 6753 05c0 ea4e adbf
00000500: b481 c09b 8341 cbbf d44c f51b e895 c8bf
00000510: 1e28 245c bfd5 c43f de3f 8d43 0b1f d6bf
00000520: 570f 9c4b 1c25 9abf 1b1b 7284 1254 b9bf
00000530: d7f7 4cfa d854 9cbf 4edd 714e 70a0 7dbf
00000540: 67bb 945a 2e59 c83f 3626 ee78 e94f a3bf
00000550: 7a4f ce97 6d2c b3bf f963 9928 2fc9 a8bf
00000560: c640 44c9 0a40 df3f c819 6221 7b9b 913f
00000570: 9cfb a699 a6af bcbf d5c2 fa43 c4b8 cf3f
00000580: 1bc6 1c87 7faa 683f 1bfe f596 9857 bc3f
00000590: 6cfb 4cb0 498c d3bf 0764 c534 9b02 c1bf
000005a0: 42c4 01d0 62ae 86bf e530 0ef4 ad45 d6bf
000005b0: 152b 12b7 112c d43f d20f 89eb 25fb 9dbf
000005c0: 07fe c2e7 68ee c23f e479 8881 b2af a6bf
000005d0: 5393 80e2 816a ba3f ba24 910a dbdf b73f
000005e0: 0cb0 dc6e e873 cfbf bfdf c7c8 4bf5 bdbf
000005f0: 40b9 24fb 8bce 7d3f 7656 ddfe 1557 c3bf
00000600: fc0b d0bf c6bd bebf 73d0 a9d1 357b d0bf
00000610: 472e aea2 eec8 71bf c3ed 7614 4587 b03f
00000620: 1507 979f 98ef d0bf ccc6 ce7a eec1 7e3f
00000630: 9215 8d4b 81a2 de3f 7a02 a7e3 ac1e d3bf
00000640: f73b 6ba9 c161 79bf b636 8a0d 9254 dabf
00000650: 0961 1e10 03e2 a5bf 50a3 c2f3 c14c a6bf
00000660: 2187 bed0 8256 7f3f d9ec 3bbf 1b2c e0bf
00000670: 2e0a e14c 11ca 883f ea95 a87f eabe a43f
00000680: e719 cfc5 f31e 8cbf 94a0 9396 9f91 bb3f
00000690: 1027 3c76 72d2 95bf 1a80 b87e 0a8d d23f
000006a0: 0db7 72ed 739e cb3f 7594 03b8 c587 bcbf
000006b0: 997b ddc1 e3fb 96bf 1d90 4d2c 7b29 603f
000006c0: 2cdc b583 1b07 7abf 1841 111c 7d5f 9a3f
000006d0: f0e5 bd30 442d c4bf 4aea 5a97 993c b4bf
000006e0: 7b72 da72 1d3b c9bf bbfa 23eb 64e6 67bf
000006f0: 9462 99f7 0cad a8bf d152 ce83 f897 bc3f
00000700: c770 c4ae d038 dbbf e26d 85d3 eb2d b23f
00000710: b0a9 a930 86d3 c23f 396d 25a2 4467 c63f
00000720: 24a7 886b cd28 cf3f 1b3c 1841 022d 9fbf
00000730: dbe1 c137 b971 d73f dcaf 8ae3 4850 d53f
00000740: a632 8c52 c040 b5bf bcf6 994f 36d7 a7bf
00000750: fce7 c513 f02f cbbf ec47 2eb6 eb66 adbf
00000760: 9a16 c0b0 9281 c9bf a3da 076c b101 c83f
00000770: dfda 5c5c 5443 c13f 086e fd37 4332 b2bf
00000780: cde8 0a85 4636 dfbf b813 7c17 be34 d33f
00000790: 49e4 9e44 9494 d5bf 237e 2ba0 130e ce3f
000007a0: 8455 faa7 215a cd3f 6e14 7b8a dac5 b2bf
000007b0: 093a 744d af81 903f 13eb 8086 874a b4bf
000007c0: f816 b6a7 a756 a33f 1a19 0ff5 2a37 c93f
000007d0: 5b41 d8ea d867 c4bf 7d6c 4f4f bda8 b43f
000007e0: 33c8 b65f 88e5 c2bf df67 c6de b995 b33f
000007f0: bd71 ac3f 835a 66bf a3e9 afe6 21cf 943f
